conveyor belt openmv firmware /trained.tflite (tflite, 57040 bytes, 21 tensors)

model_1/Conv1/Conv2D i1 [16, 3, 3, 3]
0 0 0 0 0 0 0 0
0 0 0 0 0 0 0 0
0 0 0 0 0 0 0 0
0 0 0 50 -2 32 -3 -21
17 -127 -120 -65 5 -3 1 -19
5 -3 4 -29 8 -1 19 1
-2 9 0 43 -16 15 27 -8
-6 74 113 3 44 -34 12 9
11 -1 69 127 -25 23 -1 -4
50 -63 21 77 -39 -18 36 -50
17 4 31 2 33 92 20 -2
2 -8 19 34 4 68 127 27
-15 -21 0 4 2 3 25 25
6 -4 -7 -1 45 79 -4 19
88 -6 -20 4 -6 52 101 58
33 127 37 27 49 -21 55 80
40 43 119 18 -30 16 14 11
5 -117 1 5 -103 -3 31 -26
7 -40 -127 1 -44 -117 0 14
-23 0 10 -20 2 -3 -13 2
13 -11 24 -64 33 47 -87 40
11 -19 9 36 -96 61 64 -127
71 9 -27 17 20 -35 13 15
-44 25 -11 8 -1 -31 18 7
-111 -40 2 -25 24 5 -11 -5
4 -127 -91 -4 -6 -3 9 -22
32 -6 -12 12 2 -21 27 0
41 30 -36 -27 -20 -24 49 52
34 -42 -54 -110 -127 -121 -119 -24
-22 -40 54 44 -8 -17 -14 -33
71 78 69 -24 -6 7 -16 -9
-2 2 2 -11 95 113 -8 73
00000000: 0000 0000 0000 0000 0000 0000 0000 0000
00000010: 0000 0000 0000 0000 0000 0032 fe20 fdeb
00000020: 1181 88bf 05fd 01ed 05fd 04e3 08ff 1301
00000030: fe09 002b f00f 1bf8 fa4a 7103 2cde 0c09
00000040: 0bff 457f e717 fffc 32c1 154d d9ee 24ce
00000050: 1104 1f02 215c 14fe 02f8 1322 0444 7f1b
00000060: f1eb 0004 0203 1919 06fc f9ff 2d4f fc13
00000070: 58fa ec04 fa34 653a 217f 251b 31eb 3750
00000080: 282b 7712 e210 0e0b 058b 0105 99fd 1fe6
00000090: 07d8 8101 d48b 000e e900 0aec 02fd f302
000000a0: 0df5 18c0 212f a928 0bed 0924 a03d 4081
000000b0: 4709 e511 14dd 0d0f d419 f508 ffe1 1207
000000c0: 91d8 02e7 1805 f5fb 0481 a5fc fafd 09ea
000000d0: 20fa f40c 02eb 1b00 291e dce5 ece8 3134
000000e0: 22d6 ca92 8187 89e8 ead8 362c f8ef f2df
000000f0: 474e 45e8 fa07 f0f7 fe02 02f5 5f71 f849

model_1/expanded_conv_depthwise_BN/FusedBatchNormV3;model_1/expanded_conv_depthwise/depthwise;model_1/block_5_project/Conv2D i1 [1, 3, 3, 16]
-108 19 -82 -126 39 -67 80 -76
-88 -3 -8 29 -127 5 54 -73
51 25 -127 127 127 -127 127 -127
-82 127 -127 51 -105 5 127 -25
24 -24 90 -2 -72 68 -95 77
-93 -27 4 -15 61 1 -102 -29
-127 127 -22 13 -44 16 -29 14
-27 1 3 -109 -49 8 -30 -14
-78 -41 -57 -15 -8 -25 8 -28
-108 -89 21 -12 -104 -127 1 23
14 1 65 2 3 34 -26 33
-127 7 -2 2 -21 12 -4 43
-115 -72 68 2 -6 39 -39 52
-76 0 0 4 40 2 -27 23
23 -4 31 -2 -27 40 -34 21
-125 -13 0 84 -58 0 -29 -111
21 -7 19 0 4 15 9 22
-115 4 -1 -127 107 2 17 -127
00000000: 9413 ae82 27bd 50b4 a8fd f81d 8105 36b7
00000010: 3319 817f 7f81 7f81 ae7f 8133 9705 7fe7
00000020: 18e8 5afe b844 a14d a3e5 04f1 3d01 9ae3
00000030: 817f ea0d d410 e30e e501 0393 cf08 e2f2
00000040: b2d7 c7f1 f8e7 08e4 94a7 15f4 9881 0117
00000050: 0e01 4102 0322 e621 8107 fe02 eb0c fc2b
00000060: 8db8 4402 fa27 d934 b400 0004 2802 e517
00000070: 17fc 1ffe e528 de15 83f3 0054 c600 e391
00000080: 15f9 1300 040f 0916 8d04 ff81 6b02 1181

model_1/expanded_conv_project/Conv2D i1 [8, 1, 1, 16]
0 -22 1 -2 126 -1 1 0
2 -127 -90 -3 0 120 -1 0
0 -29 0 88 74 14 25 7
2 -6 127 -41 0 31 -12 0
0 1 -2 -12 -56 3 9 1
3 3 -18 3 0 127 -6 0
0 -10 -21 -127 80 24 72 15
4 61 1 42 0 0 18 0
0 51 -26 35 -57 30 127 8
-3 -63 16 -12 0 -8 17 0
0 -17 -12 0 -22 -24 -13 15
0 10 -5 -43 0 -6 127 0
0 20 -2 -1 49 -24 -26 -8
3 -110 116 61 0 127 60 0
0 12 -14 127 9 -1 19 10
2 66 -51 78 0 -10 47 0
00000000: 00ea 01fe 7eff 0100 0281 a6fd 0078 ff00
00000010: 00e3 0058 4a0e 1907 02fa 7fd7 001f f400
00000020: 0001 fef4 c803 0901 0303 ee03 007f fa00
00000030: 00f6 eb81 5018 480f 043d 012a 0000 1200
00000040: 0033 e623 c71e 7f08 fdc1 10f4 00f8 1100
00000050: 00ef f400 eae8 f30f 000a fbd5 00fa 7f00
00000060: 0014 feff 31e8 e6f8 0392 743d 007f 3c00
00000070: 000c f27f 09ff 130a 0242 cd4e 00f6 2f00

model_1/block_1_expand/Conv2D i1 [48, 1, 1, 8]
15 -127 48 -46 31 -19 -51 23
67 60 -25 -88 13 -12 -73 127
28 2 -50 122 48 127 51 93
80 74 -79 127 -88 -10 -5 16
-34 -106 71 14 2 35 -41 -127
23 8 -32 41 2 -34 40 127
56 -12 -127 -106 117 18 44 -51
127 15 24 -24 28 -4 85 -59
20 -106 8 109 5 20 -8 -127
105 -127 13 -1 -10 13 -114 88
-127 -35 -118 23 -10 1 -110 57
-21 -40 -7 -101 -127 -31 47 -17
19 9 -39 71 -72 -26 56 127
0 0 0 0 0 0 0 0
-7 -35 -6 12 42 127 46 39
42 1 19 -127 68 42 -59 72
0 0 0 0 0 0 0 0
13 22 127 19 -29 -11 33 33
88 -127 21 35 -3 17 -113 5
-127 -13 25 69 -56 -53 -100 62
38 36 -39 121 -24 -127 -1 66
56 20 127 7 -14 -11 71 14
-84 -15 -127 -1 5 16 -109 5
-100 127 -16 -24 11 -12 126 -79
6 -50 -46 86 -7 -61 98 127
10 44 34 33 124 127 -80 -48
-84 -27 -127 -2 5 15 -90 2
6 -27 -35 10 -48 127 65 49
1 -16 -23 38 27 127 54 63
92 33 127 5 -19 -23 96 -7
-82 127 -22 -26 8 -6 105 -49
-48 -101 -24 0 29 -70 127 107
00000000: 0f81 30d2 1fed cd17 433c e7a8 0df4 b77f
00000010: 1c02 ce7a 307f 335d 504a b17f a8f6 fb10
00000020: de96 470e 0223 d781 1708 e029 02de 287f
00000030: 38f4 8196 7512 2ccd 7f0f 18e8 1cfc 55c5
00000040: 1496 086d 0514 f881 6981 0dff f60d 8e58
00000050: 81dd 8a17 f601 9239 ebd8 f99b 81e1 2fef
00000060: 1309 d947 b8e6 387f 0000 0000 0000 0000
00000070: f9dd fa0c 2a7f 2e27 2a01 1381 442a c548
00000080: 0000 0000 0000 0000 0d16 7f13 e3f5 2121
00000090: 5881 1523 fd11 8f05 81f3 1945 c8cb 9c3e
000000a0: 2624 d979 e881 ff42 3814 7f07 f2f5 470e
000000b0: acf1 81ff 0510 9305 9c7f f0e8 0bf4 7eb1
000000c0: 06ce d256 f9c3 627f 0a2c 2221 7c7f b0d0
000000d0: ace5 81fe 050f a602 06e5 dd0a d07f 4131
000000e0: 01f0 e926 1b7f 363f 5c21 7f05 ede9 60f9
000000f0: ae7f eae6 08fa 69cf d09b e800 1dba 7f6b

model_1/block_1_depthwise_BN/FusedBatchNormV3;model_1/block_1_depthwise/depthwise;model_1/block_3_depthwise/depthwise i1 [1, 3, 3, 48]
-43 -22 -7 -17 7 -39 -79 -68
-28 -50 9 66 34 -71 114 -43
-113 -85 37 -7 -1 -70 -111 -79
-35 -125 -63 -21 71 15 95 26
-127 -88 -7 54 19 48 -127 78
-76 -14 104 -109 -2 -35 -87 108
76 12 -28 -28 58 -127 -127 -81
61 -76 -115 108 37 -82 -1 62
-52 -113 59 7 10 -111 -127 -70
-5 -127 -120 -40 -55 21 -56 54
29 -127 65 85 14 73 -93 127
-127 6 124 -127 2 -23 -127 95
-32 44 6 -5 -65 -108 -58 -17
86 -7 -127 37 8 -71 -100 -11
-127 -25 27 12 -15 -76 -35 -23
-11 -29 -58 -12 -10 17 -24 10
106 -86 70 32 15 36 -5 16
-79 3 6 -78 -17 5 -55 15
-86 -127 -44 -44 -10 55 99 -105
-27 -107 -21 113 90 -64 27 -97
-121 -94 89 -76 41 -88 -102 -127
42 -118 -78 -38 127 -60 127 84
-43 -84 -15 84 -34 -76 -107 90
42 60 105 -109 -91 -118 81 120
127 -83 -127 -127 127 41 94 -127
101 -127 -111 127 127 -14 -6 127
-60 -127 127 -127 127 -127 -119 -118
127 -99 -127 -127 -119 -127 -71 127
28 -111 127 127 -68 -127 -97 90
61 127 127 -116 -113 -127 124 127
-52 32 -62 -84 -120 -23 31 -38
127 -19 -77 35 56 -70 -25 -43
00000000: d5ea f9ef 07d9 b1bc e4ce 0942 22b9 72d5
00000010: 8fab 25f9 ffba 91b1 dd83 c1eb 470f 5f1a
00000020: 81a8 f936 1330 814e b4f2 6893 fedd a96c
00000030: 4c0c e4e4 3a81 81af 3db4 8d6c 25ae ff3e
00000040: cc8f 3b07 0a91 81ba fb81 88d8 c915 c836
00000050: 1d81 4155 0e49 a37f 8106 7c81 02e9 815f
00000060: e02c 06fb bf94 c6ef 56f9 8125 08b9 9cf5
00000070: 81e7 1b0c f1b4 dde9 f5e3 c6f4 f611 e80a
00000080: 6aaa 4620 0f24 fb10 b103 06b2 ef05 c90f
00000090: aa81 d4d4 f637 6397 e595 eb71 5ac0 1b9f
000000a0: 87a2 59b4 29a8 9a81 2a8a b2da 7fc4 7f54
000000b0: d5ac f154 deb4 955a 2a3c 6993 a58a 5178
000000c0: 7fad 8181 7f29 5e81 6581 917f 7ff2 fa7f
000000d0: c481 7f81 7f81 898a 7f9d 8181 8981 b97f
000000e0: 1c91 7f7f bc81 9f5a 3d7f 7f8c 8f81 7c7f
000000f0: cc20 c2ac 88e9 1fda 7fed b323 38ba e7d5

model_1/block_1_project/Conv2D i1 [8, 1, 1, 48]
-11 1 8 -95 8 28 4 8
1 7 3 -7 99 0 2 4
0 -7 -7 0 80 -3 1 6
31 37 14 13 3 4 2 -127
10 8 -2 -1 -26 0 -18 33
8 -28 -10 6 1 0 3 2
-35 -6 -1 -6 47 25 -27 78
21 7 -34 -24 10 0 19 39
0 43 20 -49 3 23 127 23
-29 -2 54 5 23 1 16 -13
14 -6 -6 -23 6 -53 7 1
-8 -9 -80 -6 -34 8 -51 -102
-57 15 1 13 45 -10 31 22
-11 56 11 -4 1 0 7 54
0 10 -127 24 -1 10 5 -18
-34 2 35 6 10 29 22 2
5 -8 -8 -13 11 7 6 0
39 -9 -27 0 26 -55 23 14
1 3 1 10 -5 26 2 -2
65 19 -2 -4 24 0 -29 -10
0 -1 -10 0 -5 -1 8 -15
-13 -8 -8 -1 -10 -1 -2 -11
-50 43 -54 -4 6 -2 5 -127
-2 3 2 -50 -1 0 -1 5
-1 -5 81 35 3 -20 0 -5
4 -5 0 -10 -80 0 -9 4
0 7 6 2 64 2 0 -7
-16 29 -4 48 -7 -3 1 97
4 2 1 0 14 -10 -11 -16
-3 -127 6 1 2 -5 2 4
-8 43 3 -9 5 44 25 13
-19 28 6 55 26 0 -127 0
00000000: f501 08a1 081c 0408 0107 03f9 6300 0204
00000010: 00f9 f900 50fd 0106 1f25 0e0d 0304 0281
00000020: 0a08 feff e600 ee21 08e4 f606 0100 0302
00000030: ddfa fffa 2f19 e54e 1507 dee8 0a00 1327
00000040: 002b 14cf 0317 7f17 e3fe 3605 1701 10f3
00000050: 0efa fae9 06cb 0701 f8f7 b0fa de08 cd9a
00000060: c70f 010d 2df6 1f16 f538 0bfc 0100 0736
00000070: 000a 8118 ff0a 05ee de02 2306 0a1d 1602
00000080: 05f8 f8f3 0b07 0600 27f7 e500 1ac9 170e
00000090: 0103 010a fb1a 02fe 4113 fefc 1800 e3f6
000000a0: 00ff f600 fbff 08f1 f3f8 f8ff f6ff fef5
000000b0: ce2b cafc 06fe 0581 fe03 02ce ff00 ff05
000000c0: fffb 5123 03ec 00fb 04fb 00f6 b000 f704
000000d0: 0007 0602 4002 00f9 f01d fc30 f9fd 0161
000000e0: 0402 0100 0ef6 f5f0 fd81 0601 02fb 0204
000000f0: f82b 03f7 052c 190d ed1c 0637 1a00 8100

model_1/block_2_expand/Conv2D i1 [48, 1, 1, 8]
85 35 -3 -2 127 32 -54 -30
-9 1 6 127 12 -7 4 17
30 -127 -15 36 -9 -63 79 16
127 -33 -6 20 -13 -37 27 9
13 -52 127 -10 -15 -52 14 -92
73 5 -1 -2 127 10 -8 0
-20 87 -12 127 31 49 -68 -51
-2 127 -4 3 2 -12 15 0
127 45 -8 8 -52 -22 -4 -32
-127 8 2 15 51 8 -3 6
-67 -6 12 127 33 24 -17 -6
-127 0 9 -70 33 4 -19 -43
127 26 5 16 -40 -8 0 -47
-15 83 -127 -4 9 109 -73 73
-47 -26 -12 127 22 14 -12 -30
-2 127 2 -4 -2 -14 9 -53
-15 -127 -16 9 -11 -122 116 -23
15 127 4 -9 10 72 -87 -19
-4 39 -127 -4 4 52 -30 66
-65 21 -3 6 -127 5 16 20
-127 -27 3 -1 76 -28 45 -2
-69 1 -3 3 -127 -8 22 2
-127 -30 4 -1 88 -13 39 53
-18 -27 -4 -12 -5 87 -127 -90
-11 43 -127 6 12 50 -22 75
92 -35 2 127 -70 -9 2 -51
3 -18 -6 1 -10 116 127 -27
78 -11 -4 13 127 25 38 -17
4 127 -67 2 1 81 -28 114
-6 11 -7 -10 -3 83 -127 -85
5 -7 0 -127 -6 2 -4 -12
-64 5 -1 1 -127 6 15 2
00000000: 5523 fdfe 7f20 cae2 f701 067f 0cf9 0411
00000010: 1e81 f124 f7c1 4f10 7fdf fa14 f3db 1b09
00000020: 0dcc 7ff6 f1cc 0ea4 4905 fffe 7f0a f800
00000030: ec57 f47f 1f31 bccd fe7f fc03 02f4 0f00
00000040: 7f2d f808 ccea fce0 8108 020f 3308 fd06
00000050: bdfa 0c7f 2118 effa 8100 09ba 2104 edd5
00000060: 7f1a 0510 d8f8 00d1 f153 81fc 096d b749
00000070: d1e6 f47f 160e f4e2 fe7f 02fc fef2 09cb
00000080: f181 f009 f586 74e9 0f7f 04f7 0a48 a9ed
00000090: fc27 81fc 0434 e242 bf15 fd06 8105 1014
000000a0: 81e5 03ff 4ce4 2dfe bb01 fd03 81f8 1602
000000b0: 81e2 04ff 58f3 2735 eee5 fcf4 fb57 81a6
000000c0: f52b 8106 0c32 ea4b 5cdd 027f baf7 02cd
000000d0: 03ee fa01 f674 7fe5 4ef5 fc0d 7f19 26ef
000000e0: 047f bd02 0151 e472 fa0b f9f6 fd53 81ab
000000f0: 05f9 0081 fa02 fcf4 c005 ff01 8106 0f02

model_1/block_2_depthwise_BN/FusedBatchNormV3;model_1/block_2_depthwise/depthwise;model_1/block_3_depthwise/depthwise i1 [1, 3, 3, 48]
4 -3 21 109 4 82 -1 28
16 8 9 8 -8 -8 -45 8
-2 8 -24 -114 -7 -22 127 -10
-3 7 -5 8 -5 4 15 98
20 28 38 -28 1 35 -1 2
18 -68 -9 -9 16 2 -7 -10
127 9 15 -127 28 88 11 11
124 127 7 43 -50 -24 5 8
127 -56 -60 -56 -102 25 -109 15
17 71 -32 -84 23 21 9 -123
5 -61 127 10 -39 -47 -5 116
-78 -98 -30 3 -35 -8 -127 23
-31 -3 8 14 -1 66 4 17
28 9 -14 32 -14 -3 15 4
-103 29 -3 78 -32 -12 -18 -6
-4 -59 -3 28 -16 5 4 -22
8 -24 16 -20 0 48 41 -13
50 37 -16 11 -44 3 -2 -6
125 6 1 -98 14 -27 35 -16
9 9 -12 54 -6 -1 18 -33
0 -50 -60 -86 10 -74 -124 -19
5 99 -14 -127 -8 32 12 -107
17 -53 -2 127 -3 59 -41 40
-62 -127 39 -88 -45 -14 -13 -5
27 -127 -127 115 -127 -127 -127 -127
-127 -96 127 -127 127 127 35 -127
-83 127 127 -107 127 127 111 127
127 -127 -127 28 -127 -127 93 127
-127 127 -29 -41 127 -127 127 127
127 -79 127 127 127 -121 101 106
55 6 49 -14 5 -60 44 18
-23 15 -106 -8 1 -40 127 4
00000000: 04fd 156d 0452 ff1c 1008 0908 f8f8 d308
00000010: fe08 e88e f9ea 7ff6 fd07 fb08 fb04 0f62
00000020: 141c 26e4 0123 ff02 12bc f7f7 1002 f9f6
00000030: 7f09 0f81 1c58 0b0b 7c7f 072b cee8 0508
00000040: 7fc8 c4c8 9a19 930f 1147 e0ac 1715 0985
00000050: 05c3 7f0a d9d1 fb74 b29e e203 ddf8 8117
00000060: e1fd 080e ff42 0411 1c09 f220 f2fd 0f04
00000070: 991d fd4e e0f4 eefa fcc5 fd1c f005 04ea
00000080: 08e8 10ec 0030 29f3 3225 f00b d403 fefa
00000090: 7d06 019e 0ee5 23f0 0909 f436 faff 12df
000000a0: 00ce c4aa 0ab6 84ed 0563 f281 f820 0c95
000000b0: 11cb fe7f fd3b d728 c281 27a8 d3f2 f3fb
000000c0: 1b81 8173 8181 8181 81a0 7f81 7f7f 2381
000000d0: ad7f 7f95 7f7f 6f7f 7f81 811c 8181 5d7f
000000e0: 817f e3d7 7f81 7f7f 7fb1 7f7f 7f87 656a
000000f0: 3706 31f2 05c4 2c12 e90f 96f8 01d8 7f04

model_1/block_2_project/Conv2D i1 [8, 1, 1, 48]
-48 -16 -39 12 2 -29 -2 -2
-117 127 -41 109 111 3 68 -22
-10 -31 11 6 -11 -8 -26 -30
19 -90 14 67 -16 12 14 -41
1 -73 111 15 1 -10 -9 -21
110 0 43 -26 -27 20 -20 -21
1 35 127 8 -1 -22 4 -79
30 -3 24 5 -18 9 -2 -116
15 -51 6 3 -23 35 26 -31
-15 -10 17 -2 9 -3 15 1
-2 10 18 15 -9 -31 67 -57
9 36 -8 27 -12 11 22 1
4 -50 18 -44 31 25 -5 -27
6 -3 -2 12 -12 56 5 -2
-35 127 -24 -34 -13 20 -39 -7
118 4 0 -4 -30 -8 1 -42
-7 -16 2 12 -8 1 -15 6
15 -19 -20 1 0 24 -26 -40
3 -84 -1 8 4 -4 -9 0
-6 -14 18 19 15 -9 47 3
-11 -22 2 21 -4 19 -22 4
7 50 -1 5 -6 6 127 2
10 6 -4 2 -21 -13 -6 13
-11 4 -11 29 -8 0 0 35
-104 11 2 6 0 -43 1 8
40 -35 20 -15 -36 -2 -13 -6
2 4 4 26 12 -26 14 0
-8 46 4 111 5 -1 -5 -29
-1 -127 -29 7 0 -8 5 3
-48 -9 -13 17 -60 5 9 4
-23 27 24 6 -49 13 -5 43
24 7 11 10 -3 -47 11 31
00000000: d0f0 d90c 02e3 fefe 8b7f d76d 6f03 44ea
00000010: f6e1 0b06 f5f8 e6e2 13a6 0e43 f00c 0ed7
00000020: 01b7 6f0f 01f6 f7eb 6e00 2be6 e514 eceb
00000030: 0123 7f08 ffea 04b1 1efd 1805 ee09 fe8c
00000040: 0fcd 0603 e923 1ae1 f1f6 11fe 09fd 0f01
00000050: fe0a 120f f7e1 43c7 0924 f81b f40b 1601
00000060: 04ce 12d4 1f19 fbe5 06fd fe0c f438 05fe
00000070: dd7f e8de f314 d9f9 7604 00fc e2f8 01d6
00000080: f9f0 020c f801 f106 0fed ec01 0018 e6d8
00000090: 03ac ff08 04fc f700 faf2 1213 0ff7 2f03
000000a0: f5ea 0215 fc13 ea04 0732 ff05 fa06 7f02
000000b0: 0a06 fc02 ebf3 fa0d f504 f51d f800 0023
000000c0: 980b 0206 00d5 0108 28dd 14f1 dcfe f3fa
000000d0: 0204 041a 0ce6 0e00 f82e 046f 05ff fbe3
000000e0: ff81 e307 00f8 0503 d0f7 f311 c405 0904
000000f0: e91b 1806 cf0d fb2b 1807 0b0a fdd1 0b1f

model_1/block_3_expand/Conv2D i1 [48, 1, 1, 8]
-127 -3 -4 77 -38 42 27 -28
30 66 40 25 11 -37 105 127
-36 2 6 -4 -127 -14 7 -2
104 -5 -17 -124 -127 19 39 -16
-127 51 -14 -11 72 -19 48 19
-102 -32 18 -7 -127 6 13 91
-21 -127 30 -18 18 6 -6 32
-60 -6 2 92 127 -28 -36 7
78 1 0 -127 -4 -25 -41 -30
-1 -127 -10 -1 0 83 -49 84
-100 -2 3 28 -127 70 68 -13
116 14 38 14 -56 -42 -35 -127
-4 17 45 -9 13 -81 127 62
61 -20 0 -18 127 123 118 -48
127 48 -18 15 -105 -12 -31 -18
-12 -127 13 -10 1 3 2 32
-59 -8 10 -6 -127 -3 11 0
-23 95 -117 7 7 -127 109 -82
127 -24 -40 12 -56 27 9 98
127 -46 -17 -8 49 1 27 2
127 20 -14 119 0 33 -2 -55
13 28 -63 6 -28 90 -127 -83
-127 21 24 -1 -38 1 -50 -20
-38 -54 4 21 -127 63 77 -17
127 -5 -5 0 -90 -14 7 13
26 -11 3 -27 127 52 49 -36
-3 -98 6 -33 9 -127 79 -46
-20 -127 28 -16 -1 -58 31 -10
-116 45 -21 8 -11 -22 127 99
-10 45 17 8 -3 41 -97 -127
127 -27 5 11 -79 9 -55 -30
-16 -30 68 -15 24 -111 127 70
00000000: 81fd fc4d da2a 1be4 1e42 2819 0bdb 697f
00000010: dc02 06fc 81f2 07fe 68fb ef84 8113 27f0
00000020: 8133 f2f5 48ed 3013 9ae0 12f9 8106 0d5b
00000030: eb81 1eee 1206 fa20 c4fa 025c 7fe4 dc07
00000040: 4e01 0081 fce7 d7e2 ff81 f6ff 0053 cf54
00000050: 9cfe 031c 8146 44f3 740e 260e c8d6 dd81
00000060: fc11 2df7 0daf 7f3e 3dec 00ee 7f7b 76d0
00000070: 7f30 ee0f 97f4 e1ee f481 0df6 0103 0220
00000080: c5f8 0afa 81fd 0b00 e95f 8b07 0781 6dae
00000090: 7fe8 d80c c81b 0962 7fd2 eff8 3101 1b02
000000a0: 7f14 f277 0021 fec9 0d1c c106 e45a 81ad
000000b0: 8115 18ff da01 ceec daca 0415 813f 4def
000000c0: 7ffb fb00 a6f2 070d 1af5 03e5 7f34 31dc
000000d0: fd9e 06df 0981 4fd2 ec81 1cf0 ffc6 1ff6
000000e0: 8c2d eb08 f5ea 7f63 f62d 1108 fd29 9f81
000000f0: 7fe5 050b b109 c9e2 f0e2 44f1 1891 7f46

model_1/block_3_depthwise_BN/FusedBatchNormV3;model_1/block_3_depthwise/depthwise i1 [1, 3, 3, 48]
68 -91 97 71 53 -34 106 -64
60 -87 -79 47 52 -41 -71 -90
101 78 49 78 67 -73 -82 50
-32 -40 -64 -64 -67 61 -62 -114
-13 41 68 64 -64 53 -49 -22
49 -74 58 62 -93 11 75 -33
81 -96 127 85 -77 -68 -57 -84
96 -101 -63 73 80 -109 -95 91
-39 96 82 127 85 -115 52 71
-51 -77 -69 -80 56 79 -30 -127
-87 79 80 83 -81 82 -82 -15
75 -95 83 89 -74 -127 94 -103
34 -45 70 38 18 -41 -48 -38
42 -31 6 33 28 -78 -54 -2
-54 37 34 70 34 -55 32 26
-27 -45 -42 -22 30 31 88 -89
-84 44 35 33 -29 39 -37 -10
40 -40 34 42 -6 -8 36 -72
92 -112 -41 93 55 -82 127 -89
86 -113 -71 81 84 -110 -14 -127
127 107 74 -37 84 108 -127 73
73 -75 -93 -99 -127 86 -68 -8
-89 71 106 96 -84 79 -80 89
83 -101 87 91 -88 108 93 -91
127 -127 -64 127 -127 -127 -91 -127
127 -127 -127 127 127 -127 -23 96
-66 127 127 -50 127 127 69 127
127 -127 -127 -127 53 127 -28 17
-127 127 127 127 -127 127 -127 127
127 -127 127 127 -127 -11 127 -127
62 -77 -33 67 37 -63 -49 -62
56 -42 -60 58 48 -54 -16 10
00000000: 44a5 6147 35de 6ac0 3ca9 b12f 34d7 b9a6
00000010: 654e 314e 43b7 ae32 e0d8 c0c0 bd3d c28e
00000020: f329 4440 c035 cfea 31b6 3a3e a30b 4bdf
00000030: 51a0 7f55 b3bc c7ac 609b c149 5093 a15b
00000040: d960 527f 558d 3447 cdb3 bbb0 384f e281
00000050: a94f 5053 af52 aef1 4ba1 5359 b681 5e99
00000060: 22d3 4626 12d7 d0da 2ae1 0621 1cb2 cafe
00000070: ca25 2246 22c9 201a e5d3 d6ea 1e1f 58a7
00000080: ac2c 2321 e327 dbf6 28d8 222a faf8 24b8
00000090: 5c90 d75d 37ae 7fa7 568f b951 5492 f281
000000a0: 7f6b 4adb 546c 8149 49b5 a39d 8156 bcf8
000000b0: a747 6a60 ac4f b059 539b 575b a86c 5da5
000000c0: 7f81 c07f 8181 a581 7f81 817f 7f81 e960
000000d0: be7f 7fce 7f7f 457f 7f81 8181 357f e411
000000e0: 817f 7f7f 817f 817f 7f81 7f7f 81f5 7f81
000000f0: 3eb3 df43 25c1 cfc2 38d6 c43a 30ca f00a

model_1/block_3_project/Conv2D i1 [16, 1, 1, 48]
-18 0 -20 7 23 0 5 108
-53 15 44 -3 15 -21 -15 12
18 -13 -10 -2 64 -5 24 127
-19 89 -9 -12 25 -13 23 -28
-15 51 18 -49 17 47 20 -14
-111 -24 22 42 35 30 -126 -54
-40 -10 22 12 -35 13 0 59
-58 -33 3 -47 -25 -16 -3 -5
-23 118 -12 16 6 11 -27 -19
23 -41 18 26 -29 -83 -41 19
-20 -7 30 -4 -6 -43 4 15
-21 -29 127 10 13 1 20 -10
-20 -6 -10 -37 -3 -63 5 -21
2 10 13 24 14 13 -11 11
-2 -19 -26 -11 -6 2 1 -127
-13 73 -17 5 -2 -18 -3 -7
-10 51 11 2 24 13 27 -1
-41 3 -17 -6 2 -8 16 10
-10 31 4 -29 0 0 3 -5
-18 -4 -1 39 -127 4 -5 -1
3 6 -17 -1 -29 11 7 17
-5 -12 5 23 -8 20 5 17
2 2 17 20 -12 25 41 5
12 7 24 -28 7 -4 5 17
40 -31 13 12 21 27 26 -28
-29 0 -14 -22 0 9 2 20
20 -10 -80 5 -5 14 13 76
0 -30 4 47 12 -77 21 8
10 -34 35 -127 14 40 -4 20
-18 14 12 -21 -12 -22 12 4
29 -1 -17 58 -1 -5 10 24
4 -6 37 9 2 49 1 6
00000000: ee00 ec07 1700 056c cb0f 2cfd 0feb f10c
00000010: 12f3 f6fe 40fb 187f ed59 f7f4 19f3 17e4
00000020: f133 12cf 112f 14f2 91e8 162a 231e 82ca
00000030: d8f6 160c dd0d 003b c6df 03d1 e7f0 fdfb
00000040: e976 f410 060b e5ed 17d7 121a e3ad d713
00000050: ecf9 1efc fad5 040f ebe3 7f0a 0d01 14f6
00000060: ecfa f6db fdc1 05eb 020a 0d18 0e0d f50b
00000070: feed e6f5 fa02 0181 f349 ef05 feee fdf9
00000080: f633 0b02 180d 1bff d703 effa 02f8 100a
00000090: f61f 04e3 0000 03fb eefc ff27 8104 fbff
000000a0: 0306 efff e30b 0711 fbf4 0517 f814 0511
000000b0: 0202 1114 f419 2905 0c07 18e4 07fc 0511
000000c0: 28e1 0d0c 151b 1ae4 e300 f2ea 0009 0214
000000d0: 14f6 b005 fb0e 0d4c 00e2 042f 0cb3 1508
000000e0: 0ade 2381 0e28 fc14 ee0e 0ceb f4ea 0c04
000000f0: 1dff ef3a fffb 0a18 04fa 2509 0231 0106

model_1/block_4_expand/Conv2D i1 [96, 1, 1, 16]
37 -17 116 113 62 -40 30 -38
127 -18 -58 -84 36 82 -30 -71
31 89 -10 -6 103 -10 12 26
65 74 -43 127 11 -20 112 -104
16 -52 8 6 -54 45 -60 100
-76 -102 17 89 -3 -127 79 -106
123 123 -10 31 -127 -19 -58 -30
2 3 103 -74 -62 91 -41 -31
1 -5 24 13 -23 34 -24 43
-62 -42 -2 -7 0 -127 27 5
114 -39 -27 0 -15 -122 -21 11
0 8 -127 -13 26 -6 -5 35
-127 -61 -22 80 -54 -9 -33 17
-120 -62 -80 -42 24 45 3 106
-12 11 -76 43 38 -127 -24 40
9 -22 14 -8 -1 17 -38 19
37 -49 -17 -13 9 33 -57 -63
-14 12 -76 2 -127 2 1 25
16 -59 63 119 4 16 -15 -86
127 -98 9 -29 -12 48 -66 20
-111 -78 -12 -63 109 34 37 78
124 -81 -77 24 90 -108 -127 80
45 -14 -127 24 59 30 -27 46
-8 -39 -8 -4 2 26 -48 -1
110 -49 16 9 2 -52 -67 -21
40 -5 -127 -11 -46 -14 -7 51
27 -52 18 -67 86 12 -87 -127
31 -51 16 4 23 -19 23 -2
-63 35 -89 -43 98 -124 59 -58
68 42 -3 -98 32 127 -23 23
19 -10 56 36 44 -45 -37 -19
16 -58 -61 -12 -127 -53 -11 49
00000000: 25ef 7471 3ed8 1eda 7fee c6ac 2452 e2b9
00000010: 1f59 f6fa 67f6 0c1a 414a d57f 0bec 7098
00000020: 10cc 0806 ca2d c464 b49a 1159 fd81 4f96
00000030: 7b7b f61f 81ed c6e2 0203 67b6 c25b d7e1
00000040: 01fb 180d e922 e82b c2d6 fef9 0081 1b05
00000050: 72d9 e500 f186 eb0b 0008 81f3 1afa fb23
00000060: 81c3 ea50 caf7 df11 88c2 b0d6 182d 036a
00000070: f40b b42b 2681 e828 09ea 0ef8 ff11 da13
00000080: 25cf eff3 0921 c7c1 f20c b402 8102 0119
00000090: 10c5 3f77 0410 f1aa 7f9e 09e3 f430 be14
000000a0: 91b2 f4c1 6d22 254e 7caf b318 5a94 8150
000000b0: 2df2 8118 3b1e e52e f8d9 f8fc 021a d0ff
000000c0: 6ecf 1009 02cc bdeb 28fb 81f5 d2f2 f933
000000d0: 1bcc 12bd 560c a981 1fcd 1004 17ed 17fe
000000e0: c123 a7d5 6284 3bc6 442a fd9e 207f e917
000000f0: 13f6 3824 2cd3 dbed 10c6 c3f4 81cb f531

model_1/block_4_depthwise_BN/FusedBatchNormV3;model_1/block_4_depthwise/depthwise;model_1/block_6_expand/Conv2D i1 [1, 3, 3, 96]
-17 5 -20 103 -18 23 -63 -53
17 -6 98 -9 4 -7 -4 54
5 17 -33 4 73 3 31 -33
2 17 44 48 21 13 24 48
-6 27 10 -14 4 49 -57 -26
20 8 27 17 -85 -55 25 -5
-11 -20 -7 -7 50 6 -8 2
-2 -36 28 -31 27 -2 127 27
-13 -11 10 -53 65 36 2 -8
78 -32 69 4 16 -127 29 63
1 16 127 -14 37 29 -29 -19
36 -7 -14 80 1 19 -2 13
-48 12 -8 10 52 -9 -9 -127
39 14 -127 -5 -17 -11 4 91
19 -30 -15 -15 75 -96 127 26
-62 -31 -106 -17 28 36 -48 18
120 11 -13 -1 -24 127 -64 -127
8 -19 -30 13 46 -127 127 -44
-77 50 49 7 39 -63 32 56
37 42 -100 84 127 35 3 -20
43 -38 -97 -1 36 -30 -19 45
-48 -47 104 -4 -30 -59 -33 64
-66 63 -16 8 -10 47 55 -40
-27 53 -13 71 -127 -31 23 -127
1 -5 -23 -74 8 18 37 22
-4 -2 5 63 0 -12 -11 6
-12 17 -16 17 5 25 23 -31
1 -30 10 12 -7 5 46 -80
44 17 9 -22 12 3 -28 -20
7 3 -16 8 22 -31 21 1
7 -8 6 -5 5 6 -5 8
-7 44 7 -3 10 -18 3 -17
00000000: ef05 ec67 ee17 c1cb 11fa 62f7 04f9 fc36
00000010: 0511 df04 4903 1fdf 0211 2c30 150d 1830
00000020: fa1b 0af2 0431 c7e6 1408 1b11 abc9 19fb
00000030: f5ec f9f9 3206 f802 fedc 1ce1 1bfe 7f1b
00000040: f3f5 0acb 4124 02f8 4ee0 4504 1081 1d3f
00000050: 0110 7ff2 251d e3ed 24f9 f250 0113 fe0d
00000060: d00c f80a 34f7 f781 270e 81fb eff5 045b
00000070: 13e2 f1f1 4ba0 7f1a c2e1 96ef 1c24 d012
00000080: 780b f3ff e87f c081 08ed e20d 2e81 7fd4
00000090: b332 3107 27c1 2038 252a 9c54 7f23 03ec
000000a0: 2bda 9fff 24e2 ed2d d0d1 68fc e2c5 df40
000000b0: be3f f008 f62f 37d8 e535 f347 81e1 1781
000000c0: 01fb e9b6 0812 2516 fcfe 053f 00f4 f506
000000d0: f411 f011 0519 17e1 01e2 0a0c f905 2eb0
000000e0: 2c11 09ea 0c03 e4ec 0703 f008 16e1 1501
000000f0: 07f8 06fb 0506 fb08 f92c 07fd 0aee 03ef

model_1/block_4_project/Conv2D i1 [16, 1, 1, 96]
2 21 -7 22 40 64 -37 -26
41 -1 13 5 -13 10 19 63
-2 -8 -5 -11 93 -51 5 -17
-18 -39 -44 -95 -3 -8 46 44
114 -9 10 0 6 -21 -19 6
-34 18 17 -27 7 -26 -16 25
-7 23 -2 -12 -36 -15 4 0
40 28 -25 -22 -59 27 -13 -4
10 6 55 4 9 1 1 -23
-65 0 1 -1 -4 -83 3 -12
37 -20 -52 -46 32 -13 2 23
-2 -1 20 -28 19 24 -12 127
89 -112 39 97 -10 -64 -13 -45
-32 -105 -13 31 16 -77 -44 -58
-97 -3 29 23 -42 -110 -40 24
127 -72 -84 12 -37 95 -10 52
4 22 -56 16 -26 -14 48 -36
12 -91 85 -37 -55 10 55 -14
32 27 6 -70 63 -91 46 -30
25 33 -18 -107 34 -78 15 -58
0 -91 28 58 44 62 -48 6
-112 39 -15 72 33 99 14 -26
43 9 -73 30 -85 73 -2 65
-45 20 27 19 4 -42 42 8
32 10 9 -23 11 4 0 43
58 -19 9 63 4 19 46 2
1 -5 11 -9 -19 -63 9 -60
0 -14 -23 21 -12 16 127 -63
13 -75 -26 53 13 121 -45 -28
1 -22 1 36 -47 -46 -64 19
22 27 -20 -27 20 -5 6 -34
-31 4 2 26 -2 1 84 87
00000000: 0215 f916 2840 dbe6 29ff 0d05 f30a 133f
00000010: fef8 fbf5 5dcd 05ef eed9 d4a1 fdf8 2e2c
00000020: 72f7 0a00 06eb ed06 de12 11e5 07e6 f019
00000030: f917 fef4 dcf1 0400 281c e7ea c51b f3fc
00000040: 0a06 3704 0901 01e9 bf00 01ff fcad 03f4
00000050: 25ec ccd2 20f3 0217 feff 14e4 1318 f47f
00000060: 5990 2761 f6c0 f3d3 e097 f31f 10b3 d4c6
00000070: 9ffd 1d17 d692 d818 7fb8 ac0c db5f f634
00000080: 0416 c810 e6f2 30dc 0ca5 55db c90a 37f2
00000090: 201b 06ba 3fa5 2ee2 1921 ee95 22b2 0fc6
000000a0: 00a5 1c3a 2c3e d006 9027 f148 2163 0ee6
000000b0: 2b09 b71e ab49 fe41 d314 1b13 04d6 2a08
000000c0: 200a 09e9 0b04 002b 3aed 093f 0413 2e02
000000d0: 01fb 0bf7 edc1 09c4 00f2 e915 f410 7fc1
000000e0: 0db5 e635 0d79 d3e4 01ea 0124 d1d2 c013
000000f0: 161b ece5 14fb 06de e104 021a fe01 5457

model_1/block_5_expand/Conv2D i1 [96, 1, 1, 16]
0 66 -24 72 24 24 16 -17
38 34 -52 96 9 -127 49 -113
21 55 -12 -18 19 -28 127 -104
5 85 -14 -15 7 -50 37 18
-123 30 -20 -31 -7 -13 49 98
-25 53 127 -24 -80 19 10 -64
-86 75 67 81 -44 75 84 127
23 63 -123 18 56 -70 -85 -66
16 3 42 73 -14 66 -4 44
12 -22 3 1 23 0 -127 -27
-1 -24 68 -19 15 -15 -9 26
-75 99 -26 -127 -11 26 -64 -27
3 1 26 -15 37 55 -61 -66
-9 0 37 -24 127 -17 -15 -35
17 8 127 -19 -29 -44 14 1
-88 25 -79 -53 4 -12 39 -11
12 20 65 56 -62 76 28 53
33 8 3 -95 -37 -2 -127 -68
26 -119 62 57 18 -27 7 33
127 7 79 2 -21 0 -125 -37
-35 -91 7 -9 -83 22 -4 61
92 127 36 -34 -35 69 66 -3
48 -8 15 -80 19 -18 -109 -127
-44 32 -1 -20 35 -18 43 -67
-24 2 18 -40 -32 -36 -112 -29
-58 -87 -30 24 34 127 91 51
-19 -94 -75 15 -17 -78 -6 -24
40 9 -4 -24 16 11 127 31
-5 -54 60 36 29 39 2 127
25 43 16 -30 20 46 -51 114
14 -34 2 65 17 -8 97 2
9 -127 15 -32 3 -18 -1 -28
00000000: 0042 e848 1818 10ef 2622 cc60 0981 318f
00000010: 1537 f4ee 13e4 7f98 0555 f2f1 07ce 2512
00000020: 851e ece1 f9f3 3162 e735 7fe8 b013 0ac0
00000030: aa4b 4351 d44b 547f 173f 8512 38ba abbe
00000040: 1003 2a49 f242 fc2c 0cea 0301 1700 81e5
00000050: ffe8 44ed 0ff1 f71a b563 e681 f51a c0e5
00000060: 0301 1af1 2537 c3be f700 25e8 7fef f1dd
00000070: 1108 7fed e3d4 0e01 a819 b1cb 04f4 27f5
00000080: 0c14 4138 c24c 1c35 2108 03a1 dbfe 81bc
00000090: 1a89 3e39 12e5 0721 7f07 4f02 eb00 83db
000000a0: dda5 07f7 ad16 fc3d 5c7f 24de dd45 42fd
000000b0: 30f8 0fb0 13ee 9381 d420 ffec 23ee 2bbd
000000c0: e802 12d8 e0dc 90e3 c6a9 e218 227f 5b33
000000d0: eda2 b50f efb2 fae8 2809 fce8 100b 7f1f
000000e0: fbca 3c24 1d27 027f 192b 10e2 142e cd72
000000f0: 0ede 0241 11f8 6102 0981 0fe0 03ee ffe4

model_1/block_5_depthwise_BN/FusedBatchNormV3;model_1/block_5_depthwise/depthwise;model_1/block_6_expand/Conv2D i1 [1, 3, 3, 96]
-45 -72 -11 127 22 72 74 -59
-14 -18 -15 -5 -29 2 36 0
-9 -44 27 22 17 -127 127 5
-85 8 50 -28 -125 -127 39 25
12 26 61 -17 -29 -11 31 -8
-12 28 -109 70 25 -67 37 46
-18 50 -24 18 3 -6 16 48
-91 -49 -62 -18 -10 1 11 37
68 -25 74 14 -9 17 20 127
24 23 26 0 -10 17 127 -7
-15 14 -28 20 127 20 -78 -17
0 -32 -15 -40 1 -25 -15 25
127 -127 77 106 -43 127 41 -118
70 4 -17 127 127 -99 -13 15
10 127 127 -111 127 -76 81 69
-127 -117 -65 -35 -54 47 -59 -20
-89 51 -127 -85 -42 -15 -53 62
-1 127 127 80 -52 -113 -112 -51
-15 -127 42 84 67 -31 45 82
-46 42 -81 -112 -44 -41 -61 67
72 -61 26 31 -81 32 -18 92
116 127 13 20 2 57 -33 52
64 127 127 -23 -8 76 -113 127
-120 -100 5 -127 -90 -127 -38 105
-73 -12 31 -83 15 -27 63 -9
81 -34 -27 18 -19 -4 -8 -12
-9 -16 7 -4 -24 -102 28 -2
-122 99 8 -55 119 51 -16 10
1 14 14 -29 -8 33 20 11
25 12 -118 64 18 -18 36 13
-14 10 -17 4 -9 2 -2 21
-66 7 -34 51 3 41 34 0
00000000: d3b8 f57f 1648 4ac5 f2ee f1fb e302 2400
00000010: f7d4 1b16 1181 7f05 ab08 32e4 8381 2719
00000020: 0c1a 3def e3f5 1ff8 f41c 9346 19bd 252e
00000030: ee32 e812 03fa 1030 a5cf c2ee f601 0b25
00000040: 44e7 4a0e f711 147f 1817 1a00 f611 7ff9
00000050: f10e e414 7f14 b2ef 00e0 f1d8 01e7 f119
00000060: 7f81 4d6a d57f 298a 4604 ef7f 7f9d f30f
00000070: 0a7f 7f91 7fb4 5145 818b bfdd ca2f c5ec
00000080: a733 81ab d6f1 cb3e ff7f 7f50 cc8f 90cd
00000090: f181 2a54 43e1 2d52 d22a af90 d4d7 c343
000000a0: 48c3 1a1f af20 ee5c 747f 0d14 0239 df34
000000b0: 407f 7fe9 f84c 8f7f 889c 0581 a681 da69
000000c0: b7f4 1fad 0fe5 3ff7 51de e512 edfc f8f4
000000d0: f7f0 07fc e89a 1cfe 8663 08c9 7733 f00a
000000e0: 010e 0ee3 f821 140b 190c 8a40 12ee 240d
000000f0: f20a ef04 f702 fe15 be07 de33 0329 2200

model_1/block_5_project/Conv2D i1 [16, 1, 1, 96]
-21 -16 0 -35 20 -10 -36 -2
13 7 -10 8 -9 -6 -29 8
0 6 -1 -5 14 -32 8 8
2 15 2 127 36 -33 39 -8
-4 9 4 -1 -12 14 -42 -1
-14 5 3 38 4 12 17 3
28 4 -10 6 20 -22 -14 79
2 6 -26 -38 -2 28 2 -22
-44 -69 -18 40 10 8 20 -12
-10 -28 -2 -26 -25 15 0 4
-11 -25 30 25 0 -7 -11 -95
7 -12 3 -2 47 -35 -39 -9
32 -87 -84 -66 127 -19 70 35
-28 -93 -67 -8 2 -1 -69 46
-68 9 57 40 23 44 -10 -56
9 -3 -17 -80 42 -11 -68 44
-32 41 1 -4 3 -13 3 25
-38 38 -44 -25 -47 92 13 4
26 -74 3 -47 -28 36 53 8
-66 -28 -32 -43 27 -15 6 -39
-96 105 -21 -18 -1 -32 -20 24
51 -100 -25 -4 32 -58 42 -8
10 -32 41 7 -49 39 -24 32
31 -37 -8 12 24 6 28 113
-5 55 -88 -16 69 73 42 70
-10 -102 2 -3 3 8 22 29
16 -9 -39 55 31 -6 76 29
38 32 -7 -40 38 -1 43 -52
24 41 -16 30 -127 -83 27 39
4 -41 28 -15 14 -33 8 60
-15 27 -29 -4 76 -12 -20 46
24 7 34 -1 27 27 37 -16
00000000: ebf0 00dd 14f6 dcfe 0d07 f608 f7fa e308
00000010: 0006 fffb 0ee0 0808 020f 027f 24df 27f8
00000020: fc09 04ff f40e d6ff f205 0326 040c 1103
00000030: 1c04 f606 14ea f24f 0206 e6da fe1c 02ea
00000040: d4bb ee28 0a08 14f4 f6e4 fee6 e70f 0004
00000050: f5e7 1e19 00f9 f5a1 07f4 03fe 2fdd d9f7
00000060: 20a9 acbe 7fed 4623 e4a3 bdf8 02ff bb2e
00000070: bc09 3928 172c f6c8 09fd efb0 2af5 bc2c
00000080: e029 01fc 03f3 0319 da26 d4e7 d15c 0d04
00000090: 1ab6 03d1 e424 3508 bee4 e0d5 1bf1 06d9
000000a0: a069 ebee ffe0 ec18 339c e7fc 20c6 2af8
000000b0: 0ae0 2907 cf27 e820 1fdb f80c 1806 1c71
000000c0: fb37 a8f0 4549 2a46 f69a 02fd 0308 161d
000000d0: 10f7 d937 1ffa 4c1d 2620 f9d8 26ff 2bcc
000000e0: 1829 f01e 81ad 1b27 04d7 1cf1 0edf 083c
000000f0: f11b e3fc 4cf4 ec2e 1807 22ff 1b1b 25f0

model_1/block_6_expand/Conv2D i1 [96, 1, 1, 16]
-27 98 2 -127 -41 -28 -37 -66
-16 13 7 84 25 -56 -4 47
-34 18 -71 -8 -33 -35 35 -92
60 63 -67 14 -4 -2 46 -127
-3 1 -37 34 31 14 -68 -68
127 -41 -5 14 0 89 -53 26
43 -66 2 -111 18 -32 -2 -5
101 2 68 36 -17 37 11 127
-80 44 9 33 3 -23 2 34
-2 14 14 -27 -127 -18 -11 31
10 68 112 2 22 79 -75 82
-57 75 -26 -35 29 -47 -127 25
36 -51 127 -120 45 7 -50 103
-70 -110 61 -28 12 97 -27 76
38 117 -34 -67 94 8 10 -57
127 109 -36 14 19 -31 68 54
13 -92 5 -91 21 -61 21 -74
24 67 69 -12 22 127 82 63
10 -28 -1 127 44 -4 36 -56
-59 104 34 -17 -3 -58 -11 -11
-3 32 -41 -127 13 5 -16 44
37 -40 23 -23 -12 -39 1 25
2 13 19 -24 83 -36 91 -65
-91 44 -6 26 -5 127 -65 -28
58 -25 -127 -21 25 -84 29 21
8 65 -83 -53 -30 113 6 36
-15 8 -25 9 6 -127 1 20
4 -9 6 -3 8 -14 7 11
13 -40 92 -40 58 -1 -127 -108
-25 -40 20 12 8 -70 -6 -28
-98 27 -13 -47 -5 8 127 65
-31 38 91 -21 24 101 70 -5
00000000: e562 0281 d7e4 dbbe f00d 0754 19c8 fc2f
00000010: de12 b9f8 dfdd 23a4 3c3f bd0e fcfe 2e81
00000020: fd01 db22 1f0e bcbc 7fd7 fb0e 0059 cb1a
00000030: 2bbe 0291 12e0 fefb 6502 4424 ef25 0b7f
00000040: b02c 0921 03e9 0222 fe0e 0ee5 81ee f51f
00000050: 0a44 7002 164f b552 c74b e6dd 1dd1 8119
00000060: 24cd 7f88 2d07 ce67 ba92 3de4 0c61 e54c
00000070: 2675 debd 5e08 0ac7 7f6d dc0e 13e1 4436
00000080: 0da4 05a5 15c3 15b6 1843 45f4 167f 523f
00000090: 0ae4 ff7f 2cfc 24c8 c568 22ef fdc6 f5f5
000000a0: fd20 d781 0d05 f02c 25d8 17e9 f4d9 0119
000000b0: 020d 13e8 53dc 5bbf a52c fa1a fb7f bfe4
000000c0: 3ae7 81eb 19ac 1d15 0841 adcb e271 0624
000000d0: f108 e709 0681 0114 04f7 06fd 08f2 070b
000000e0: 0dd8 5cd8 3aff 8194 e7d8 140c 08ba fae4
000000f0: 9e1b f3d1 fb08 7f41 e126 5beb 1865 46fb

model_1/head/Conv2D i1 [32, 1, 1, 96]
10 48 18 -87 -73 6 -14 60
-26 -37 -120 -96 -105 100 -65 52
26 77 8 -5 -43 -108 -48 13
84 -111 -10 92 44 -79 58 1
-85 75 17 -67 -35 2 -93 -30
-106 -52 93 -74 56 -22 -88 90
-109 83 -93 12 -33 70 -3 41
-72 -92 -9 22 -17 73 26 -127
58 -117 -110 40 38 -90 -18 105
-64 25 -57 97 -55 -66 -41 -25
-114 44 55 26 -52 -75 -62 -48
17 30 19 59 -97 -97 -55 38
68 3 70 39 30 -100 -4 120
29 62 -80 64 -114 -109 21 -80
-67 -40 -9 -32 103 82 -93 -76
43 -24 -42 -80 77 47 -28 -62
-102 -90 -114 -79 33 -70 -46 11
4 111 -13 35 37 3 -41 36
12 -123 -2 -44 -16 -113 -57 -115
46 42 75 5 66 -100 -47 -46
127 -14 -8 86 56 90 49 118
-4 24 33 33 74 -78 120 -19
-85 111 -79 86 31 18 -118 36
-60 -67 53 -26 -42 6 28 5
-2 -74 -93 -127 -47 8 70 -3
22 -54 -72 -57 48 75 -77 -123
-103 32 -50 29 -99 -59 25 22
-86 67 -49 -51 -29 -40 -90 28
48 -75 52 -2 -86 18 -84 66
56 -39 111 74 -69 -24 48 23
-21 -68 -1 89 -97 -84 -2 -84
-54 20 79 111 96 87 -71 100
00000000: 0a30 12a9 b706 f23c e6db 88a0 9764 bf34
00000010: 1a4d 08fb d594 d00d 5491 f65c 2cb1 3a01
00000020: ab4b 11bd dd02 a3e2 96cc 5db6 38ea a85a
00000030: 9353 a30c df46 fd29 b8a4 f716 ef49 1a81
00000040: 3a8b 9228 26a6 ee69 c019 c761 c9be d7e7
00000050: 8e2c 371a ccb5 c2d0 111e 133b 9f9f c926
00000060: 4403 4627 1e9c fc78 1d3e b040 8e93 15b0
00000070: bdd8 f7e0 6752 a3b4 2be8 d6b0 4d2f e4c2
00000080: 9aa6 8eb1 21ba d20b 046f f323 2503 d724
00000090: 0c85 fed4 f08f c78d 2e2a 4b05 429c d1d2
000000a0: 7ff2 f856 385a 3176 fc18 2121 4ab2 78ed
000000b0: ab6f b156 1f12 8a24 c4bd 35e6 d606 1c05
000000c0: feb6 a381 d108 46fd 16ca b8c7 304b b385
000000d0: 9920 ce1d 9dc5 1916 aa43 cfcd e3d8 a61c
000000e0: 30b5 34fe aa12 ac42 38d9 6f4a bbe8 3017
000000f0: ebbc ff59 9fac feac ca14 4f6f 6057 b964

model_1/logits/Conv2D i1 [2, 1, 1, 32]
-49 -4 -58 -56 102 -1 127 -6
37 -93 -105 -60 93 -26 122 -33
-103 2 89 12 94 -42 110 -52
-57 102 8 -112 -87 -108 23 20
91 127 -91 -79 17 107 10 -54
76 -104 -93 57 -75 4 32 87
-91 103 106 79 -74 1 -16 50
111 -8 -84 -92 66 95 122 -115
00000000: cffc c6c8 66ff 7ffa 25a3 97c4 5de6 7adf
00000010: 9902 590c 5ed6 6ecc c766 0890 a994 1714
00000020: 5b7f a5b1 116b 0aca 4c98 a339 b504 2057
00000030: a567 6a4f b601 f032 6ff8 aca4 425f 7a8d
